{"keras_version": "2.2.4", "backend": "tensorflow", "config": {"name": "sequential_1", "layers": [{"config": {"dtype": "float32", "units": 64, "recurrent_activation": "hard_sigmoid", "recurrent_dropout": 0.0, "recurrent_initializer": {"config": {"gain": 1.0, "seed": null}, "class_name": "Orthogonal"}, "unroll": false, "bias_constraint": null, "use_bias": true, "unit_forget_bias": true, "return_sequences": true, "kernel_constraint": null, "activation": "tanh", "activity_regularizer": null, "stateful": false, "trainable": true, "go_backwards": false, "kernel_regularizer": null, "name": "lstm_1", "batch_input_shape": [null, null, 49], "implementation": 1, "recurrent_constraint": null, "kernel_initializer": {"config": {"distribution": "uniform", "scale": 1.0, "mode": "fan_avg", "seed": null}, "class_name": "VarianceScaling"}, "return_state": false, "bias_initializer": {"config": {}, "class_name": "Zeros"}, "dropout": 0.0, "recurrent_regularizer": null, "bias_regularizer": null}, "class_name": "LSTM"}, {"config": {"trainable": true, "gamma_constraint": null, "beta_regularizer": null, "scale": true, "beta_initializer": {"config": {}, "class_name": "Zeros"}, "name": "batch_normalization_1", "epsilon": 0.001, "gamma_regularizer": null, "moving_variance_initializer": {"config": {}, "class_name": "Ones"}, "momentum": 0.99, "beta_constraint": null, "axis": -1, "center": true, "gamma_initializer": {"config": {}, "class_name": "Ones"}, "moving_mean_initializer": {"config": {}, "class_name": "Zeros"}}, "class_name": "BatchNormalization"}, {"config": {"name": "dropout_1", "trainable": true, "rate": 0.3, "noise_shape": null, "seed": null}, "class_name": "Dropout"}, {"config": {"units": 64, "recurrent_activation": "hard_sigmoid", "recurrent_dropout": 0.0, "recurrent_initializer": {"config": {"gain": 1.0, "seed": null}, "class_name": "Orthogonal"}, "unroll": false, "bias_constraint": null, "use_bias": true, "unit_forget_bias": true, "return_sequences": false, "kernel_constraint": null, "activation": "tanh", "activity_regularizer": null, "stateful": false, "trainable": true, "go_backwards": false, "kernel_regularizer": null, "recurrent_constraint": null, "name": "lstm_2", "implementation": 1, "kernel_initializer": {"config": {"distribution": "uniform", "scale": 1.0, "mode": "fan_avg", "seed": null}, "class_name": "VarianceScaling"}, "return_state": false, "bias_initializer": {"config": {}, "class_name": "Zeros"}, "dropout": 0.0, "recurrent_regularizer": null, "bias_regularizer": null}, "class_name": "LSTM"}, {"config": {"name": "repeat_vector_1", "trainable": true, "n": 50}, "class_name": "RepeatVector"}, {"config": {"units": 64, "recurrent_activation": "hard_sigmoid", "recurrent_dropout": 0.0, "recurrent_initializer": {"config": {"gain": 1.0, "seed": null}, "class_name": "Orthogonal"}, "unroll": false, "bias_constraint": null, "use_bias": true, "unit_forget_bias": true, "return_sequences": true, "kernel_constraint": null, "activation": "tanh", "activity_regularizer": null, "stateful": false, "trainable": true, "go_backwards": false, "kernel_regularizer": null, "recurrent_constraint": null, "name": "lstm_3", "implementation": 1, "kernel_initializer": {"config": {"distribution": "uniform", "scale": 1.0, "mode": "fan_avg", "seed": null}, "class_name": "VarianceScaling"}, "return_state": false, "bias_initializer": {"config": {}, "class_name": "Zeros"}, "dropout": 0.0, "recurrent_regularizer": null, "bias_regularizer": null}, "class_name": "LSTM"}, {"config": {"trainable": true, "gamma_constraint": null, "beta_regularizer": null, "scale": true, "beta_initializer": {"config": {}, "class_name": "Zeros"}, "name": "batch_normalization_2", "epsilon": 0.001, "gamma_regularizer": null, "moving_variance_initializer": {"config": {}, "class_name": "Ones"}, "momentum": 0.99, "beta_constraint": null, "axis": -1, "center": true, "gamma_initializer": {"config": {}, "class_name": "Ones"}, "moving_mean_initializer": {"config": {}, "class_name": "Zeros"}}, "class_name": "BatchNormalization"}, {"config": {"name": "dropout_2", "trainable": true, "rate": 0.3, "noise_shape": null, "seed": null}, "class_name": "Dropout"}, {"config": {"units": 64, "recurrent_activation": "hard_sigmoid", "recurrent_dropout": 0.0, "recurrent_initializer": {"config": {"gain": 1.0, "seed": null}, "class_name": "Orthogonal"}, "unroll": false, "bias_constraint": null, "use_bias": true, "unit_forget_bias": true, "return_sequences": true, "kernel_constraint": null, "activation": "tanh", "activity_regularizer": null, "stateful": false, "trainable": true, "go_backwards": false, "kernel_regularizer": null, "recurrent_constraint": null, "name": "lstm_4", "implementation": 1, "kernel_initializer": {"config": {"distribution": "uniform", "scale": 1.0, "mode": "fan_avg", "seed": null}, "class_name": "VarianceScaling"}, "return_state": false, "bias_initializer": {"config": {}, "class_name": "Zeros"}, "dropout": 0.0, "recurrent_regularizer": null, "bias_regularizer": null}, "class_name": "LSTM"}, {"config": {"trainable": true, "gamma_constraint": null, "beta_regularizer": null, "scale": true, "beta_initializer": {"config": {}, "class_name": "Zeros"}, "name": "batch_normalization_3", "epsilon": 0.001, "gamma_regularizer": null, "moving_variance_initializer": {"config": {}, "class_name": "Ones"}, "momentum": 0.99, "beta_constraint": null, "axis": -1, "center": true, "gamma_initializer": {"config": {}, "class_name": "Ones"}, "moving_mean_initializer": {"config": {}, "class_name": "Zeros"}}, "class_name": "BatchNormalization"}, {"config": {"name": "dropout_3", "trainable": true, "rate": 0.3, "noise_shape": null, "seed": null}, "class_name": "Dropout"}, {"config": {"name": "time_distributed_1", "trainable": true, "layer": {"config": {"trainable": true, "units": 49, "kernel_regularizer": null, "name": "dense_1", "bias_constraint": null, "use_bias": true, "kernel_initializer": {"config": {"distribution": "uniform", "scale": 1.0, "mode": "fan_avg", "seed": null}, "class_name": "VarianceScaling"}, "kernel_constraint": null, "activation": "softmax", "activity_regularizer": null, "bias_regularizer": null, "bias_initializer": {"config": {}, "class_name": "Zeros"}}, "class_name": "Dense"}}, "class_name": "TimeDistributed"}]}, "class_name": "Sequential"}